model/model.pth (torch, 17216 bytes, 4 tensors)

linear1.weight f4 [256, 11]
0	0x3d4eeea8	0.05052057
1	0x3eb49d9b	0.35276493
2	0xbdcd39c4	-0.100207835
3	0xbe5e3eaf	-0.217036
4	0x3d946a38	0.07246822
5	0xbe5671de	-0.20941874
6	0x3e654160	0.2238822
7	0xbe517551	-0.20454909
8	0x3e8d02d6	0.27541226
9	0xbe11d802	-0.14242557
10	0x3c052ace	0.008127881
11	0xbe7f59a0	-0.24936533
12	0x3db9a0d9	0.090638824
13	0x3d5684c8	0.052372724
14	0x3e1b3d2d	0.15160055
15	0xbe8e4606	-0.277878
16	0xbeb2f705	-0.34954086
17	0x3e9a891a	0.30182725
18	0xbeb03125	-0.34412494
19	0x3ec7db22	0.39034373
20	0xbddc1c74	-0.107476145
21	0x3e9fb1b6	0.3119027
22	0xbe72f531	-0.23726346
23	0xbe29c625	-0.16579492
24	0x3e9b8921	0.3037806
25	0x3e1eea8f	0.15519165
26	0x3eae86ec	0.34087312
27	0xbbf0295d	-0.0073291496
28	0xbe2f97dd	-0.17147775
29	0xbda5568f	-0.0807315
30	0xbe45eaa4	-0.1932779
31	0xbe09bfce	-0.13452074
32	0x3ea38d46	0.3194372
33	0xbd81dcb3	-0.06340923
34	0x3e03235a	0.12806454
35	0x3ee774a6	0.45206183
36	0xbe34ff8a	-0.17675605
37	0xbd4a593f	-0.049401518
38	0xbe60a1e2	-0.21936753
39	0x3ce16420	0.027513564
40	0x3deffbe9	0.1171797
41	0x3da64591	0.081187375
42	0x3ec2dfcc	0.38061368
43	0x3e445041	0.1917124
44	0x3eba8f2c	0.36437356
45	0x3c0f42f1	0.008743987
46	0x3e741ae9	0.2383839
47	0xbe4d3527	-0.20039807
48	0xbe29c0c0	-0.16577435
49	0xbe4f58b3	-0.2024868
50	0x3e224ff2	0.15850809
51	0x3eeccba5	0.46249118
52	0x3ed96934	0.42463076
53	0x3ef149c6	0.47126597
54	0x3e41d568	0.18929064
55	0x3baa6282	0.0051997313
56	0xbd8d298a	-0.068926886
57	0x3ea7afda	0.32751352
58	0xbe9448fc	-0.28961933
59	0x3db7be2a	0.08971818
60	0xbcbe4996	-0.023228448
61	0xbecfb6e9	-0.40569237
62	0xbd173ad9	-0.036921356
63	0x3ed82fb8	0.42223907
64	0xbdd8b155	-0.105806984
65	0x3e98c25c	0.29835784
66	0xbcae96ec	-0.0213122
67	0xbe6fc0b4	-0.23413354
68	0x3dfba92f	0.122881286
69	0xbede6611	-0.43437245
70	0x3d8e525f	0.06949305
71	0x3db194f7	0.08670991
72	0x3e74156a	0.23836294
73	0x3e53100e	0.20611593
74	0xbdd2b317	-0.10288065
75	0xbe0d3d6d	-0.13792963
76	0x3ea79ffc	0.32739246
77	0xbe053dc0	-0.13011837
78	0x3e0267a7	0.12734853
79	0xbe610abb	-0.2197675
80	0x3e4626ba	0.1935071
81	0xbd881170	-0.06643951
82	0xbd0e1151	-0.034684483
83	0xbe95d21e	-0.2926187
84	0x3ebd93b5	0.37026754
85	0x3ec79eda	0.38988382
86	0x3dff248c	0.12458143
87	0x3ec24092	0.37939888
88	0xbdc05f0d	-0.093931295
89	0x3e29f016	0.16595492
90	0x3eab3294	0.33437026
91	0x3d541f26	0.051787518
92	0x3e54d302	0.20783618
93	0xbe798a9f	-0.24369286
94	0xbe88ccf6	-0.26718873
95	0xbe2acab3	-0.16678886
96	0xbe258f0d	-0.16167851
97	0x3dfc9b4b	0.12334307
98	0xbd9a88c5	-0.07545618
99	0xbba58aee	-0.005051962
100	0xbd459d9a	-0.048246004
101	0x3d850dcf	0.064967744
102	0xbe606ac3	-0.21915726
103	0x3e2658f3	0.16244869
104	0x3e45399c	0.19260257
105	0x3d3c5f69	0.045989428
106	0xbeecef07	-0.46276113
107	0xbe1f7906	-0.1557351
108	0x3ca79832	0.020458315
109	0x3cc802c2	0.024415378
110	0x3dc8ecf2	0.09810819
111	0x3e0f34f4	0.13985044
112	0xbd26f9d5	-0.040765602
113	0xbe1378e0	-0.14401579
114	0xbe2c84a7	-0.16847478
115	0x3e92f0ea	0.28699428
116	0x3da1cf6f	0.07900893
117	0x3ea42518	0.3205955
118	0x3eb31d43	0.34983262
119	0xbdc397a1	-0.09550405
120	0xbd2dc49f	-0.04242384
121	0xbdae4090	-0.08508408
122	0x3df585e7	0.119884305
123	0xbda066a9	-0.07832081
124	0x3daf97de	0.08573888
125	0xbead841f	-0.33889863
126	0x3e23371c	0.15938991
127	0x3dbf5580	0.0934248
128	0x3e966cec	0.29379976
129	0x3e9ffabb	0.3124598
130	0x3eac695b	0.3367413
131	0xbe004c1c	-0.12529033
132	0xbe52010a	-0.20508209
133	0x3d2f58b3	0.0428092
134	0xbd5790cc	-0.052628323
135	0xbd6f2fc0	-0.058395147
136	0x3e18fe2d	0.1494071
137	0x3e0f323e	0.1398401
138	0xbe3f13d6	-0.1865991
139	0xbe3fe153	-0.18738298
140	0xbc4bc580	-0.012437224
141	0xbdd12246	-0.10211615
142	0x3de8245d	0.11335061
143	0xbca92846	-0.020649087
144	0x3de99f36	0.1140732
145	0xbe41c687	-0.18923388
146	0x3e9a361e	0.30119413
147	0xbd00fc38	-0.031490535
148	0xbd467065	-0.04844703
149	0x3e253456	0.16133246
150	0xbe8aea93	-0.2713209
151	0xbc5d89a5	-0.013521587
152	0xbd3ce17c	-0.046113476
153	0xbe19789f	-0.1498742
154	0x3e8a8cd6	0.27060574
155	0xbe3a7d23	-0.18211798
156	0xbe261eaf	-0.16222642
157	0xbee8236b	-0.45339522
158	0xbe0913a7	-0.13386403
159	0x3ebb1cde	0.3654546
160	0xbc80f983	-0.015743976
161	0xbe3a5886	-0.18197832
162	0x3ed348d1	0.41266492
163	0xbd8dba9d	-0.06920359
164	0x3e9169cd	0.28401032
165	0xbd076876	-0.033058606
166	0x3e09035a	0.13380185
167	0x3df7ba8d	0.120961286
168	0x3ed5f6b6	0.41789788
169	0xbe418750	-0.18899274
170	0xbef9979d	-0.48748484
171	0x3e5bcce9	0.21464886
172	0x3eb4737d	0.3524436
173	0xbf0e30f2	-0.55543435
174	0x3de442a1	0.11145521
175	0xbedba301	-0.428978
176	0x3dc845c3	0.09778931
177	0x3e959062	0.29211718
178	0xbdc1809d	-0.09448359
179	0x3e8d690c	0.27619207
180	0xbe487dc2	-0.19579223
181	0x3e211506	0.15730676
182	0x3eb5e87e	0.3552894
183	0x3e5e0bc8	0.21684182
184	0xbe16629e	-0.14686057
185	0xbef20a5b	-0.47273526
186	0xbcd15079	-0.025551068
187	0x3d49da5c	0.04928051
188	0x3e508fba	0.20367327
189	0xbe733bad	-0.23753233
190	0xbe923abe	-0.28560442
191	0xbe0c92d4	-0.13727885
192	0x3e83dd4e	0.2575478
193	0x3eb8d2fc	0.36098468
194	0x3dfa2c35	0.12215463
195	0x3e19d817	0.15023838
196	0xbefb715f	-0.49109933
197	0xbebf0ccc	-0.3731445
198	0xbc63f019	-0.013912224
199	0x3ee9bada	0.4565037
200	0x3e5307c2	0.20608428
201	0xbe067ffc	-0.1313476
202	0xbd9687d8	-0.07350129
203	0xbd147540	-0.03624463
204	0xbec91c97	-0.39279625
205	0xbdc6ff8e	-0.09716712
206	0xbcfa643f	-0.03056538
207	0xbdf26adf	-0.1183679
208	0x3eae1b90	0.34005404
209	0xbe792244	-0.24329478
210	0xbe5c839e	-0.21534583
211	0x3eaba285	0.3352243
212	0xbe821869	-0.25409248
213	0x3e590a85	0.21195419
214	0xbe8bdbb0	-0.27316046
215	0x3e351c89	0.17686667
216	0xbe1201be	-0.14258477
217	0x3e6ac24b	0.2292568
218	0xbcead81a	-0.028667498
219	0x3ed747da	0.42047006
220	0x3e70951f	0.23494385
221	0x3eaa8a13	0.33308467
222	0xbe5a658c	-0.213278
223	0x3e19fa54	0.15036899
224	0xbe4f37a5	-0.2023607
225	0x3a74dde8	0.0009340928
226	0xbd08bd90	-0.033383906
227	0xbe164d12	-0.14677837
228	0x3e4d2efc	0.20037454
229	0xbe0ecc77	-0.13945185
230	0x3e579a9c	0.21055073
231	0xbe6749c5	-0.22586735
232	0x3e1f6860	0.1556716
233	0xbe31a23b	-0.17347042
234	0x3e949930	0.29023123
235	0x3e6f23de	0.23353526
236	0x3e137ae6	0.14402351
237	0x3e4d85be	0.2007055
238	0xbdb73ecb	-0.08947524
239	0xbdec3923	-0.115343355
240	0xbe53550c	-0.20637912
241	0xbd3c1498	-0.045918077
242	0x3e9fba75	0.31196943
243	0xbeaeca3e	-0.34138674
244	0x3d89ae3e	0.06722687
245	0x3cf23b4d	0.029569292
246	0xbebba1d3	-0.366469
247	0x3e4e0619	0.20119514
248	0x3e1f6c05	0.1556855
249	0x3e63ac9c	0.22233814
250	0xbb045f24	-0.002019831
251	0x3dd958c3	0.10612633
252	0xbd3cfb43	-0.04613806
253	0x3e5aa573	0.21352176
254	0x3e7dc074	0.24780446
255	0xbf01f03a	-0.5075718

linear1.bias f4 [256]
0	0xbd86100d	-0.0654603
1	0xbd1bac6c	-0.03800623
2	0xbe18fb7c	-0.14939684
3	0x3e48b5f6	0.19600663
4	0xbe880f23	-0.26574048
5	0xbb89380f	-0.004187591
6	0x3dc8af0a	0.09799011
7	0xbdd057e8	-0.10173017
8	0xbe8451e8	-0.2584374
9	0x3f139a0c	0.5765693
10	0xbe2c9270	-0.16852736
11	0x3d521164	0.051286116
12	0xbe9cf821	-0.30658057
13	0x3f21c39c	0.631891
14	0xbe83435f	-0.25637338
15	0x3c431925	0.01190785
16	0x3ead076d	0.33794728
17	0x3b82a6b5	0.003987158
18	0x3d831386	0.06400208
19	0xbe2de6e8	-0.16982615
20	0xbc66c3c9	-0.014084765
21	0x3efc1050	0.49231195
22	0x3e5eb464	0.21748501
23	0x3f097119	0.536882
24	0x3db3e971	0.0878476
25	0xbe3c190c	-0.1836893
26	0x3edcbbc5	0.43112007
27	0x3d93f227	0.07223921
28	0xbb3a0eeb	-0.002839024
29	0xbe6e6ab1	-0.23282887
30	0x3d3de8b7	0.046364512
31	0x3f0497bc	0.5179403
32	0xbe618c9a	-0.22026291
33	0x3e96d005	0.2945558
34	0xbca4e477	-0.020128472
35	0xbe4a12ef	-0.19733785
36	0xbd5ce905	-0.053933162
37	0xbd281e06	-0.041044258
38	0xbda2787c	-0.07933137
39	0xbd64f867	-0.055900957
40	0x3eb7362b	0.35783514
41	0x3e645bc8	0.22300637
42	0xbe4a35c7	-0.19747077
43	0x3e0a0416	0.13478121
44	0xbe24ea10	-0.16104913
45	0xbe68c0fb	-0.22729866
46	0xbe8904e0	-0.26761532
47	0x3d8013df	0.0625379
48	0xbe00cc38	-0.12577903
49	0xbdfab3e7	-0.12241345
50	0xbe626ecb	-0.22112577
51	0x3c9a3fcf	0.018829254
52	0xbd38c56b	-0.045110147
53	0xbec70ef3	-0.38878593
54	0xbd606ae1	-0.054789428
55	0x3d708a37	0.058725562
56	0xbe448b0e	-0.1919367
57	0x3f1b1d78	0.6059184
58	0xbc546e3a	-0.012965733
59	0x3d17ba79	0.03704307
60	0xbdd93b50	-0.10607016
61	0x3e04807b	0.12939636
62	0xbe36f51b	-0.17866938
63	0x3df1d28f	0.11807739
64	0xbca386dd	-0.019961769
65	0x3ddb73a3	0.10715415
66	0x3ee6b8c5	0.45062843
67	0xbe43ca79	-0.19120206
68	0x3ccea6fe	0.025226112
69	0xbe9253ed	-0.28579655
70	0x3edae48b	0.4275249
71	0xbdbdca43	-0.09267094
72	0xbe840058	-0.25781512
73	0x3de1b558	0.11020917
74	0x3e1cefa7	0.15325795
75	0xbdc2d107	-0.09512525
76	0x3d6bfee8	0.057616144
77	0x3ea9454f	0.3306069
78	0x3ee36f31	0.4442077
79	0x3b4f7981	0.0031658115
80	0xbda261d1	-0.07928813
81	0xbe344777	-0.17605387
82	0x3dadb120	0.084810495
83	0xbe11a53d	-0.1422319
84	0x3d4aac82	0.049480923
85	0xbc5b0576	-0.013368001
86	0x3e16083a	0.14651576
87	0x3dba9916	0.0911123
88	0xbeeb5787	-0.45965216
89	0x3cb11161	0.021614732
90	0xbd3987dd	-0.045295585
91	0x3e810417	0.25198433
92	0x3e2dfa9b	0.1699013
93	0xbe244858	-0.16043222
94	0xbc952a4c	-0.018208645
95	0x3c9053ea	0.017618138
96	0xbd4aca1e	-0.04950916
97	0xbe7ce8be	-0.24698159
98	0xbd7b7725	-0.061392922
99	0xbd1b1f05	-0.03787138
100	0xbd61e4a4	-0.05514969
101	0xbd64c3d4	-0.05585082
102	0x3d03043e	0.031986468
103	0x3e6339a2	0.22189954
104	0xbd8c22a6	-0.06842546
105	0xbe97906f	-0.29602382
106	0xbe620370	-0.22071624
107	0x3e355dab	0.17711513
108	0x3b5534aa	0.003253261
109	0xbea74a1e	-0.32673734
110	0xbe3f50b5	-0.18683131
111	0x3d5657f0	0.052329957
112	0x3d545c91	0.05184609
113	0xbe2d2ba7	-0.16911183
114	0xbe6cd8a1	-0.23129512
115	0x3e6d5398	0.2317642
116	0x3de5db89	0.11223514
117	0x3e890b10	0.26766253
118	0xbd98e5bd	-0.07465694
119	0xbe213a74	-0.15744954
120	0x3eb7a5a1	0.35868552
121	0x3f24849c	0.64264846
122	0xbe530e22	-0.2061086
123	0xbe99c433	-0.300325
124	0xbdedab6b	-0.11604961
125	0xbd63357b	-0.055470925
126	0xbe81ecb5	-0.25375906
127	0x3eb8b8ab	0.3607839
128	0xbe189d18	-0.14903677
129	0xbe87b916	-0.26508397
130	0xbe5359ba	-0.20639697
131	0x3e46ef9e	0.19427344
132	0xbda0106f	-0.078156345
133	0x3e6b2629	0.22963776
134	0x3e13aab8	0.14420593
135	0x3e0fbaae	0.14036056
136	0xbe4d7635	-0.20064624
137	0x3d933f72	0.071898356
138	0xbdf65268	-0.120274365
139	0xbe292c3d	-0.16520782
140	0xbd7c8bb9	-0.061656687
141	0x3eb1b7af	0.34710452
142	0xbdd85ca5	-0.105645455
143	0xbd11388f	-0.03545433
144	0xbe50f274	-0.20404989
145	0x3c68ba54	0.01420458
146	0xbde5797c	-0.11204812
147	0xbe37154a	-0.17879215
148	0xbe52493b	-0.20535748
149	0x3df927d5	0.121658005
150	0xbd9e36f5	-0.07725326
151	0x3eaa2c23	0.332368
152	0x3bd07974	0.0063621346
153	0xbe3afc95	-0.18260415
154	0x3ccb08a9	0.024784403
155	0x3f112f33	0.56712645
156	0x3d6da253	0.058016133
157	0xbe876eb8	-0.2645166
158	0xbde2839e	-0.1106026
159	0xbe5c569a	-0.21517411
160	0x3eac021f	0.33595368
161	0xbe567a1d	-0.2094502
162	0xbe7ef299	-0.24897231
163	0x3c3b090f	0.011415734
164	0xbd93c507	-0.07215314
165	0x3ea7f994	0.328076
166	0x3f0afa08	0.5428777
167	0xbeacfa2f	-0.33784625
168	0x3e11ced8	0.14239061
169	0xbca7c236	-0.02047835
170	0x3e50fffa	0.20410147
171	0x3d8406ac	0.06446585
172	0xbd4bd927	-0.04976764
173	0xbe0c4e63	-0.13701777
174	0xbdc40273	-0.0957078
175	0x3df6427d	0.120244004
176	0xbe5efaad	-0.21775313
177	0xbdbb0cc5	-0.09133295
178	0xbd9ed6c3	-0.07755806
179	0xbe72f565	-0.23726423
180	0xbe5775c9	-0.21041025
181	0x3d9abb62	0.07555272
182	0xbe04c7c4	-0.1296683
183	0x3d0a8e6c	0.03382723
184	0x3e5848d0	0.21121526
185	0xbb507af6	-0.0031811572
186	0xbd33075c	-0.04370819
187	0x3e0bb4a9	0.13643135
188	0x3ebe24b1	0.37137368
189	0xbe18d913	-0.14926557
190	0xbe5c865b	-0.21535628
191	0xbdd539b7	-0.10411399
192	0x3ec184ac	0.37796533
193	0x3eda9c8f	0.4269757
194	0x3e327249	0.17426409
195	0x3e4f38b4	0.20236474
196	0xbe9bd842	-0.3043843
197	0x3e99b948	0.3002417
198	0xbe4ae2ee	-0.1981313
199	0xbd19d19a	-0.037553407
200	0x3d2186a5	0.039435048
201	0x3e8e9143	0.278452
202	0xbe784d91	-0.24248339
203	0xbe9523f2	-0.29128987
204	0xbe0ea4a6	-0.13929996
205	0xbd0c1319	-0.0341979
206	0xbda92aef	-0.08260142
207	0xbdcdb3dc	-0.10044071
208	0xbd07202a	-0.03298966
209	0x3d857a8d	0.06517515
210	0xbbafac45	-0.0053611123
211	0xbe48bc35	-0.19603045
212	0xbe2ca57c	-0.16860002
213	0x3e80dcb6	0.2516839
214	0x3e0d2ccf	0.13786624
215	0xbe59d760	-0.21273565
216	0x3dd58441	0.10425616
217	0x3e0d5d7e	0.13805196
218	0xbd98e2fd	-0.074651696
219	0xbdfcdd8a	-0.12346943
220	0xbea43cd2	-0.32077652
221	0xbe04f5ab	-0.1298434
222	0x3e119b6a	0.14219442
223	0x3cfaa9c8	0.030598536
224	0xbdc8c17e	-0.09802531
225	0x3d418ed3	0.04725535
226	0x3e1795d2	0.14803246
227	0xbe5fb5f3	-0.21846752
228	0xbda977ea	-0.08274825
229	0x3e86b1d2	0.2630754
230	0x3f05ab62	0.52214634
231	0xbd469576	-0.04848238
232	0xbd86f069	-0.06588823
233	0xbe262a28	-0.16227019
234	0x3eb44647	0.35209867
235	0x3e5ce947	0.21573363
236	0x3f14008c	0.57813334
237	0x3e2f3371	0.17109467
238	0x3d2d2b12	0.042277403
239	0x3ef1c30c	0.4721912
240	0xbe2e68a0	-0.17032099
241	0x3e7b4c02	0.24540713
242	0xbe339dc2	-0.17540649
243	0x3e02b6d6	0.12765059
244	0x3e5f5350	0.21809125
245	0x3d4f13f5	0.050556142
246	0xbe54a433	-0.20765762
247	0xbe16cae4	-0.14725834
248	0xbbc346a1	-0.0059593474
249	0xbe217cff	-0.15770338
250	0x3d395f96	0.045257173
251	0xbdb3fe20	-0.08788705
252	0x3ef4bb4e	0.47799152
253	0xbe866344	-0.2624761
254	0x3e4bab85	0.19889648
255	0x3e462d71	0.19353272

linear2.weight f4 [3, 256]
0	0x3e133930	0.14377284
1	0x3c3498ab	0.011022727
2	0xbe98f4eb	-0.29874358
3	0x3d156a42	0.03647829
4	0xbee2d4e8	-0.4430306
5	0x3d57e6b9	0.05271027
6	0xbd821618	-0.0635187
7	0xbd422e11	-0.047407214
8	0xbe1974dc	-0.14985985
9	0x3e6599b8	0.2242192
10	0xbe5f79ac	-0.21823758
11	0xbd605efd	-0.054778088
12	0xbcda8621	-0.026675286
13	0x3e2ac600	0.16677094
14	0xbea59e2d	-0.3234724
15	0x3e38da58	0.18052042
16	0x3e877386	0.26455325
17	0xbea95917	-0.33075783
18	0xbd9f4cdf	-0.07778334
19	0x3e4f7520	0.20259523
20	0xbe2516d8	-0.16121995
21	0x3e9e67f4	0.30938685
22	0x3d3449b1	0.04401559
23	0x3df05562	0.117350355
24	0x3e40482a	0.18777528
25	0xbf06d4df	-0.52668566
26	0x3e42ff42	0.19042686
27	0x3c2f4a0f	0.010698809
28	0xbd1e9a59	-0.038721416
29	0x3dab31e1	0.08359123
30	0xbd2b5ff1	-0.041839544
31	0x3e9947d6	0.2993762
32	0xbe7d56af	-0.24740098
33	0x3e489763	0.19589
34	0xbec75856	-0.38934582
35	0xbecf2d38	-0.40464187
36	0x3eaa4630	0.33256674
37	0x3e92f9f9	0.2870634
38	0xbda808ef	-0.08204829
39	0x3ec9578f	0.39324614
40	0x3e81ce01	0.2535248
41	0x3e3c1ea0	0.18371058
42	0xbe7dbe16	-0.24779543
43	0x3e861efd	0.26195517
44	0xbee5fe33	-0.449205
45	0xbe05355d	-0.13008638
46	0x3ce63b23	0.02810437
47	0x3e257cfb	0.16160958
48	0xbe323ec7	-0.1740676
49	0xbe9b5701	-0.30339816
50	0x3d2b9e3f	0.041898962
51	0xbed739d0	-0.42036295
52	0xbe66393d	-0.22482772
53	0x3ca05f62	0.019576732
54	0xbe92993d	-0.28632537
55	0x3ea66ee3	0.32506475
56	0xbe0598be	-0.13046548
57	0x3e7dbe60	0.24779654
58	0xbec08fec	-0.37609804
59	0x3e86575b	0.26238522
60	0xbe1a7495	-0.15083535
61	0xbe6a4386	-0.2287732
62	0xbc0475a4	-0.008084688
63	0xbbb7d41f	-0.0056100036
64	0xbd1d4bcb	-0.03840236
65	0x3eb6b84e	0.35687488
66	0x3e087df2	0.13329294
67	0x3e87bcef	0.26511332
68	0xbe81466e	-0.25249046
69	0xbeb41a31	-0.35176232
70	0x3e7bd943	0.24594598
71	0x3e7d88b2	0.24759176
72	0xbdd5976f	-0.10429274
73	0xbda0e85c	-0.07856819
74	0xbe67da35	-0.22641833
75	0xbe8abf96	-0.27099293
76	0x3ea4bff0	0.32177687
77	0x3dbd90b7	0.09256118
78	0x3e6ff17b	0.23431961
79	0x3e95de9b	0.29271397
80	0xbe546c69	-0.2074448
81	0xbe17c517	-0.14821278
82	0x3d968af6	0.073507234
83	0x3e37d4ab	0.1795222
84	0xbf3da711	-0.7408305
85	0x3d2a7eb7	0.04162475
86	0xbe5bf931	-0.21481778
87	0xbded66f1	-0.115919
88	0xbe9ebe56	-0.3100459
89	0xbea39e5c	-0.31956756
90	0x3e7eaa4b	0.24869649
91	0x3e6d82dc	0.2319445
92	0x3e7c10a3	0.24615721
93	0xbec1bcec	-0.37839448
94	0xbebfce8d	-0.37462273
95	0xbe96e619	-0.29472426
96	0xbee525c6	-0.4475538
97	0xbe516ffd	-0.20452876
98	0xbdd58265	-0.104252614
99	0x3d806ac5	0.06270365
100	0x3e72461f	0.23659562
101	0x3cb9e22c	0.022690855
102	0x3eaf27a8	0.34209943
103	0x3d4dec46	0.050274156
104	0xbebe8608	-0.37211633
105	0xbe927733	-0.28606567
106	0xbddbf46c	-0.10739979
107	0x3eb2f7a9	0.34954575
108	0x3e7f4a55	0.24930699
109	0xbeae85f2	-0.34086567
110	0xbe46a3da	-0.19398442
111	0xbd050273	-0.03247304
112	0x3e8dda0b	0.27705416
113	0xbe80e97c	-0.25178134
114	0xbe9e46a3	-0.30913267
115	0x3eb083ea	0.34475642
116	0x3de19b57	0.11015957
117	0x3e246ecb	0.16057889
118	0xbe91f577	-0.28507587
119	0xbec6c90a	-0.38825256
120	0x3e446afd	0.19181438
121	0x3eaf5bd1	0.34249738
122	0xbed89ec1	-0.4230862
123	0x3cf32118	0.029678866
124	0xbda1fcc6	-0.07909541
125	0xbe5f8568	-0.21828234
126	0x3d8a747a	0.067604974
127	0x3e5ca858	0.21548593
128	0xbe9efb69	-0.31051186
129	0xbe8dddf4	-0.277084
130	0xbd1bbfaa	-0.038024582
131	0x3e9e33ae	0.30898803
132	0xbece2393	-0.40261516
133	0x3e8b000c	0.27148473
134	0x3e4f6b2b	0.20255725
135	0xbe5f92a4	-0.21833283
136	0xbea02585	-0.31278625
137	0x3e403531	0.18770291
138	0x3db868c3	0.09004357
139	0xbe2bae54	-0.1676572
140	0xbe25f7a0	-0.16207743
141	0x3e92cf7a	0.28673917
142	0xbe335a63	-0.17514949
143	0xbcd98fa8	-0.026557758
144	0xbe4682c7	-0.19385825
145	0xbd6c1d5c	-0.057645187
146	0x3ea7cf42	0.32775313
147	0xbe84d52f	-0.25943896
148	0xbe3fbb09	-0.18723692
149	0xbeaa3b28	-0.33248258
150	0xbe634606	-0.2219468
151	0x3e9a14e6	0.3009407
152	0xbe8d97af	-0.27654788
153	0xbcc20540	-0.023684144
154	0x3e4a92c6	0.19782552
155	0x3e9fba5d	0.3119687
156	0x3e035f89	0.12829413
157	0xbe279c5a	-0.16368237
158	0xbe2eba57	-0.1706327
159	0xbe8a71f3	-0.2704006
160	0x3e8cb733	0.2748352
161	0xbe20ccea	-0.15703169
162	0xbea8f3c2	-0.32998472
163	0xbdad8f21	-0.08474565
164	0xbe8d76c9	-0.27629688
165	0x3e327c6a	0.17430273
166	0x3eb22a53	0.34797916
167	0xbd329119	-0.043595407
168	0xbdf5da4c	-0.120045274
169	0xbe08f6e1	-0.13375427
170	0x3c0b71a9	0.008510985
171	0xbde9e75e	-0.11421083
172	0x3ebb36e3	0.36565313
173	0xbdaafa49	-0.08348519
174	0x3e549326	0.20759258
175	0x3e611ed6	0.21984419
176	0xbe808bdf	-0.25106713
177	0x3e325371	0.17414643
178	0xbd8b05b9	-0.06788201
179	0xbd461c23	-0.048366677
180	0xbe8badb7	-0.2728097
181	0xbd83c415	-0.06433884
182	0xbe09c435	-0.13453753
183	0x3de1ff08	0.110349715
184	0x3cd529d3	0.02602092
185	0x3d82b770	0.06382644
186	0xbd47713f	-0.048691984
187	0xbe0dc945	-0.1384631
188	0x3e8eae00	0.27867126
189	0xbdbbf124	-0.09176853
190	0x3e8fc5b8	0.28080535
191	0xbf014942	-0.5050241
192	0x3e5dbf03	0.21654896
193	0x3e67e31b	0.22645228
194	0x3e68beb6	0.22729
195	0x3e8cc7a4	0.27496064
196	0xbe93fcca	-0.289038
197	0x3d413aea	0.047175325
198	0xbed78752	-0.4209543
199	0xbe3720f6	-0.17883667
200	0xbea92786	-0.33037966
201	0x3d5fd667	0.05464783
202	0xbdadc5cb	-0.08484992
203	0xbeece61e	-0.46269315
204	0xbed8b6f2	-0.42327076
205	0xbf029b25	-0.5101798
206	0x3e8a36ee	0.26995033
207	0x3eb9a0cc	0.3625549
208	0xbd81f1bb	-0.063449346
209	0xbedd881f	-0.43267915
210	0xbea215e4	-0.31657326
211	0xbed69430	-0.41909933
212	0xbea8608e	-0.32886165
213	0x3d9f1675	0.07767955
214	0xbec9f220	-0.3944254
215	0x3df1cefa	0.11807056
216	0x3dc090d4	0.09402624
217	0x3e2ab190	0.16669297
218	0xbec8518f	-0.39124724
219	0x3dbf3716	0.09336679
220	0xbddfbae0	-0.109243155
221	0xbebd1357	-0.36928818
222	0x3e520567	0.20509873
223	0x3d17261b	0.036901575
224	0x3e423fb7	0.18969618
225	0xbec7295e	-0.38898748
226	0x3e22fc12	0.1591647
227	0xbe6c8885	-0.23098953
228	0x3eccf9d2	0.40034348
229	0x3d8823d4	0.06647459
230	0x3e5e9b67	0.21738969
231	0x3de22bf9	0.11043543
232	0xbe763b66	-0.24046096
233	0xbeef60f2	-0.4675365
234	0x3e54d4fb	0.2078437
235	0x3d90a484	0.07062629
236	0x3eaf1e4c	0.34202802
237	0x3da49a4a	0.08037241
238	0xbe64dee1	-0.22350647
239	0x3e9f8661	0.3115721
240	0xbe54ec3e	-0.20793244
241	0x3ec2973a	0.38006002
242	0xbe9b5616	-0.30339116
243	0xbec24579	-0.37943628
244	0x3d2e35b4	0.042531684
245	0x3ed0fe8f	0.40819213
246	0xbe6336cd	-0.22188874
247	0xbe0c1805	-0.13681038
248	0xbe34563c	-0.17611021
249	0xbdae371e	-0.085066065
250	0xbee91939	-0.45527056
251	0xbe21088c	-0.15725917
252	0x3ecb0e8b	0.39659533
253	0xbe22fa14	-0.1591571
254	0x3dabc76f	0.08387648
255	0xbcfc9291	-0.030831607

linear2.bias f4 [3]
0	0x3dcbdc3a	0.09954114
1	0x3d1f01ca	0.038820066
2	0x3da69675	0.08134166
